CNN6(
  (cnn6): _CNN6(
    (conv_block1): ConvBlock5x5(
      (conv1): Conv2d(1, 64, kernel_size=(5, 5), stride=(1, 1), padding=(2, 2), bias=False)
      (bn1): BatchNorm2d(64, eps=1e-05, momentum=0.1, affine=True, track_running_stats=True)
    )
    (conv_block2): ConvBlock5x5(
      (conv1): Conv2d(64, 128, kernel_size=(5, 5), stride=(1, 1), padding=(2, 2), bias=False)
      (bn1): BatchNorm2d(128, eps=1e-05, momentum=0.1, affine=True, track_running_stats=True)
    )
    (conv_block3): ConvBlock5x5(
      (conv1): Conv2d(128, 256, kernel_size=(5, 5), stride=(1, 1), padding=(2, 2), bias=False)
      (bn1): BatchNorm2d(256, eps=1e-05, momentum=0.1, affine=True, track_running_stats=True)
    )
    (conv_block4): ConvBlock5x5(
      (conv1): Conv2d(256, 512, kernel_size=(5, 5), stride=(1, 1), padding=(2, 2), bias=False)
      (bn1): BatchNorm2d(512, eps=1e-05, momentum=0.1, affine=True, track_running_stats=True)
    )
    (dropout): Dropout(p=0.2, inplace=False)
    (linear): Linear(in_features=512, out_features=4, bias=True)
  )
)
LinearClassifier(
  (fc): Linear(in_features=512, out_features=4, bias=True)
)
Projector(
  (linear1): Linear(in_features=512, out_features=512, bias=True)
  (linear2): Linear(in_features=512, out_features=128, bias=True)
  (bn): BatchNorm1d(512, eps=1e-05, momentum=0.1, affine=True, track_running_stats=True)
  (relu): ReLU()
  (projector): Sequential(
    (0): Linear(in_features=512, out_features=512, bias=True)
    (1): ReLU()
    (2): Linear(in_features=512, out_features=128, bias=True)
  )
)
Epoch 1
Train loss : 3.4534	Train SE : 0.1948	Train SP : 0.0002	Train Score : 0.0975	Train Acc : 0.0979
Val loss : 1.3942	Val SE : 0.1529	Val SP : 0.0000	Val Score : 0.0765	Val Acc : 0.0653
Epoch 2
Train loss : 3.4481	Train SE : 0.1984	Train SP : 0.0002	Train Score : 0.0993	Train Acc : 0.0997
Val loss : 1.3934	Val SE : 0.1521	Val SP : 0.0000	Val Score : 0.0760	Val Acc : 0.0649
…
